hw1/model_ta_alld_v_w.npy (npy, 1280 bytes, 1 tensors)

array f8 [144]
0	0xbf97c5acf3ee3782	-0.023215010059679304
1	0xbfaef89b22f19eec	-0.06049046327171745
2	0x3f83542201b452a0	0.0094378144045007
3	0x3f755655e5c1061a	0.005209289109247029
4	0x3fa40f8ebf6b2db8	0.03918119513181345
5	0x3fa63e40bd9a5da8	0.0434437018822636
6	0x3fa0df9242c17443	0.032955713890921355
7	0xbf6c3f1d3b4320ef	-0.0034480639388655347
8	0xbfb13832cffbdf07	-0.06726377084475753
9	0x3f39cb2e537c2e32	0.0003935802555907502
10	0xbf8521892ac25fa0	-0.010317870728883183
11	0xbf8dde91c2ea76d0	-0.014584673653469521
12	0xbf798e9fec4c633e	-0.006239533137681273
13	0xbf7a43f8309b65a2	-0.006412477008518465
14	0xbf83952adb17052d	-0.009561857997030099
15	0xbf6225d9d17f8f60	-0.002215314318151515
16	0x3f8039dfa8dec032	0.007922885266310773
17	0x3f8b8debb8937a03	0.013454286165537793
18	0xbf6aa63cf6196917	-0.0032530966425784557
19	0xbf731ee7943af91a	-0.004668144803586816
20	0xbf865dd8102884e0	-0.010921180718528267
21	0xbf89f5650d0b398e	-0.012675084553305262
22	0xbf78b92305be5630	-0.006035935217274566
23	0x3f9244b9dc7d2e89	0.017840293963031804
24	0x3f97255478a1451d	0.022603340017956264
25	0x3f9acbbae897beb9	0.026167793699584083
26	0x3fa0a79e0528c6e7	0.03252881825427583
27	0xbf98486b69b2501a	-0.023713758779720796
28	0xbf9b953f28e0a00d	-0.02693651854511363
29	0xbf9a19ffcaf0df7e	-0.025489804040460744
30	0xbf89342c021f4bd1	-0.012306541266218137
31	0xbf9c2e78aeeb03ae	-0.027521024395131093
32	0xbf90bf9c502695cf	-0.016355936424266745
33	0xbf7fda0801b477aa	-0.007776290203109252
34	0x3f71322aecf156d6	0.004198234250983387
35	0x3f8f9ac571416865	0.015431921499999566
36	0x3f7c8593809ad473	0.006963325673202114
37	0xbf68aa43cc7920eb	-0.0030108761018575645
38	0x3fad34d51020e6cd	0.05704370328790063
39	0xbfb49999d7b572a1	-0.0804687644608273
40	0x3f92cda7c8373c41	0.01836263808746375
41	0x3f9cc14b246e5f53	0.028081106279926726
42	0x3f971f351b595539	0.022579984468696444
43	0xbf9524affd04037a	-0.020647764032222217
44	0xbf9a862b0a120b71	-0.025902435769704583
45	0xbf27ab4120b4ac73	-0.00018057985321582072
46	0x3f91714d6a40686a	0.01703377686508426
47	0xbfa287ade7e7d9ad	-0.03619140106086447
48	0x3f9d0908c24f8e02	0.02835477529505504
49	0xbf91182278ea16bd	-0.016693628912000536
50	0xbfb1b633e127251b	-0.06918644186875549
51	0xbf964d770e9e2b5b	-0.021779880778505994
52	0x3fa76fdb7ead9a8b	0.04577527924884802
53	0x3fbfd1202660c7c7	0.12428475319828101
54	0xbf9809a1c1a4e132	-0.023474242633910687
55	0x3f774944183aac01	0.005685106272419028
56	0xbf5aa20aa832c025	-0.0016255477974418478
57	0x3f58ecab5f966a42	0.0015212701385737414
58	0xbf8513ae00993c69	-0.010291442292468216
59	0xbfae2469a3ba2ad5	-0.05887155650733226
60	0x3f68f475ab594842	0.003046254942810329
61	0x3f726e13cc707b29	0.004499509180304875
62	0x3fb60b8479c1b00e	0.08611324284146368
63	0xbf78f4a8d7b92f7a	-0.006092700521161615
64	0x3f8450d66686f270	0.009919810298805148
65	0x3f909adaf6218f1a	0.016215726158761525
66	0xbf8ff93df2afe52f	-0.01561211010811067
67	0xbf99a2f3c5e2dec3	-0.025035675957694858
68	0xbfb07a6521886f1e	-0.0643676001422446
69	0x3f8d270611252a34	0.014234588049153542
70	0xbf8d654968ebd4d5	-0.014353345407906929
71	0x3fb94cf60be9e2f5	0.0988305834852204
72	0xbf82a2d1ef9d277a	-0.009099617123542226
73	0xbf66b0ea13815807	-0.0027699062157280382
74	0xbf9a5328ecbaf2dd	-0.025707854699009814
75	0x3f88be227e0335c4	0.012081403227422245
76	0x3f66721de2b6d20d	0.002739961977306976
77	0xbfa71d9b5bc42f7a	-0.045147757484385445
78	0x3f99a95489cfefe6	0.025060006057159877
79	0x3f96469fd0c8629f	0.02175378524597937
80	0x3facb3303e26c6e9	0.05605459936795205
81	0x3fa6b0b1fc537a15	0.044316827823184614
82	0x3f8b16296f7b730d	0.013225864138286103
83	0x3f96f3d78da555b4	0.022414558430076517
84	0xbfacc943bc749e6d	-0.05622302699549384
85	0x3fb277ce1b94b878	0.07214058087694919
86	0x3fc9189fe423e89d	0.19606398238812953
87	0xbfd197fac86beb95	-0.27490109989565187
88	0x3fb6cf8504ffd8ac	0.08910399791770612
89	0x3fe83ab742d353b2	0.7571674637971368
90	0xbfa321d94cd171c4	-0.03736762106629812
91	0xbf91834327bd27c0	-0.017102288532704568
92	0xbf9ad5da604df5cb	-0.026206409576379913
93	0x3f93b174c0f7d2e2	0.019231628682933606
94	0x3f8683a9aaf5f890	0.010993314294634154
95	0xbf93aba0401c9a38	-0.019209388650006626
96	0xbfad82c1aed9515f	-0.05763821849237404
97	0xbfa8ef131c7e7251	-0.04869899485422436
98	0xbfa901d6974a0e57	-0.04884214970391259
99	0xbf97df90e8235636	-0.02331377426965827
100	0x3f62386c1a4ff53b	0.002224169862982931
101	0xbf904c12d3e35e76	-0.015915197546603164
102	0xbf64af7cd6249411	-0.002525085278778601
103	0x3f7b846514c710e5	0.006718058441439666
104	0x3f7644ec5707902a	0.005436824038472602
105	0x3f9d0c54c87de33d	0.028367352234883503
106	0xbfaa11aa0b294696	-0.050916017401175725
107	0x3fa0659eefcb1dde	0.03202530553022219
108	0x3fb52cd576cc078d	0.08271536016766685
109	0x3f924ed269a68394	0.01787880678023475
110	0xbf96e05ed9498500	-0.022340280544431046
111	0x3fa895eea1a23280	0.04801889155451011
112	0x3fb16cc74ab28160	0.06806607793487762
113	0xbfb428fcf01c90c2	-0.07875042783831801
114	0xbf942b0bbf16ab2e	-0.0196954570180125
115	0x3fb08eb925527655	0.06467778359589123
116	0x3fd140a090601ce4	0.2695695314327635
117	0xbf9e19f75756d5d4	-0.02939592810226606
118	0xbfa346d4e15273f8	-0.03764977694047639
119	0xbfa3602bff2e1e4a	-0.03784310808174192
120	0xbf94953df8563905	-0.020100563318515636
121	0xbfa18557b4c2d950	-0.03422044831806892
122	0xbf99299de22627e9	-0.024572817733805073
123	0xbf622011528db0e4	-0.002212556679685661
124	0x3f9195f5c7953a4c	0.017173614794325595
125	0x3f9faa5518cad3e3	0.030923204076959265
126	0x3f2db407b4026492	0.00022661775620206166
127	0xbf321e9c0e8e2b97	-0.0002764826772866878
128	0xbf38a14b4f987377	-0.00037582481999880825
129	0xbf38a39d37fd589a	-0.0003759630999317171
130	0x3f42907c5b4dee2c	0.0005665404520267029
131	0x3f503e0b7b9e79b5	0.000991355146176082
132	0xbf45df0cc0732305	-0.0006674587501943335
133	0xbf57c96c2849870f	-0.0014518314575515145
134	0x3f4042ac3b0499e7	0.0004962292642048367
135	0x3fb60732d534572e	0.08604734139620682
136	0x3f9f2f0d8f5d945e	0.030452930331552934
137	0x3f9c56c76eb61167	0.02767478574016149
138	0x3f9486e1c608b58f	0.020045783721959472
139	0xbf9b2e479cdda1e0	-0.026543730687451972
140	0xbfae9d13bc456ea1	-0.0597921531031862
141	0xbf81fe07a6dbdf67	-0.008785304813031037
142	0xbf752e0afafdf2ef	-0.005170863048871806
143	0xbf845edcf14a6b1b	-0.009946561921699229
